graphinvent/models/cnsmpo_model.pt (torch_old, 605821 bytes, 7 tensors)

0.weight f4 [256, 300]
0.029334424 -0.03713857 -0.051712 0.007162928 -0.015244806 0.05275545 -0.04384908 0.0025496462
0.021133333 0.04940301 0.036583886 -0.02930222 0.026803087 -0.051204953 -0.048766993 -0.013244817
-0.0124741625 -0.007879241 0.014936883 -0.021738078 -0.011069905 -0.027978735 0.026716854 -0.017079039
0.056608148 0.0071693053 0.01905721 0.05011646 -0.03357584 -0.03953397 -0.015896665 -0.028251009
-0.04460927 0.028564902 0.012613579 0.043825146 0.029752048 -0.046265986 0.015445649 -0.056918245
-0.0022074608 0.0061600367 0.047835324 0.015069123 0.047604132 -0.025205866 0.030757202 0.050506335
0.03833935 -0.0075334106 0.02285732 0.040941987 0.04069784 0.017524188 0.029057452 0.044759817
0.047587723 -0.0049091196 -0.023511175 0.036325518 -0.033344466 0.043557514 0.00094236986 0.0056705144
0.025222635 0.0027879276 0.022968886 0.030573854 -0.025031298 0.007605422 -0.034907185 -0.04737844
0.024024567 0.03809189 -0.0065190117 -0.005833924 0.057250813 -0.046556905 0.04647754 -0.0028249568
-0.058405954 0.020289252 0.05700692 0.015821792 0.033595935 -0.04129136 -0.03813211 -0.04672875
0.023113057 0.038823005 0.010541192 -0.040795743 0.029995816 0.04812461 -0.035484016 0.04613649
0.049073808 -0.021400688 -0.038826946 0.006670356 -0.051481497 -0.011045528 0.027045209 0.016392251
0.028067771 0.008039227 0.0045556515 -0.05742123 0.017557576 -0.022273146 0.04862285 -0.054562487
-0.032924037 0.035499576 -0.046431046 0.052305505 0.025268355 -0.050211612 0.016741898 -0.047776405
0.007391561 -0.03130788 0.018662032 -0.026291842 -0.052180387 -0.026906623 0.0055943066 -0.00083858386
0.05093742 0.011554491 -0.04834547 0.02539179 0.010351695 -0.032468375 0.04714373 -0.04096856
0.031171594 -0.04648433 -0.038261965 -0.037230596 -0.006934394 -0.05610547 0.051305987 -0.04704484
-0.027832417 0.03684549 0.0037231252 0.025998574 -0.037163362 0.043930687 0.014110885 0.025780832
0.015496049 0.0007976154 -0.027193863 -0.026083956 -0.020882864 0.0580748 -0.06276762 0.019196253
-0.009103626 0.019594822 0.009457529 0.045055628 -0.03489296 0.060211603 0.043043606 0.056009
0.010788113 -0.017323198 0.06234762 -0.02063309 -0.021241747 -0.002235062 0.033804044 -0.016268564
-0.049337775 -0.008492037 0.034312878 -0.013956296 -0.02101578 -0.05823007 0.015318336 -0.06076037
0.013360409 0.05846855 -0.045287926 0.020401312 -0.032932777 -0.033509605 0.0043122307 0.0340083
-0.015915047 0.008438348 -0.015942985 0.044560917 0.021153426 -0.029944548 0.048833594 0.0058308085
0.013761824 0.015067779 0.025850384 -0.008781907 0.045754984 0.007192707 0.021062562 0.021606525
-0.058540225 0.032761376 0.012184382 -0.03580992 -0.018828226 0.0018471702 -0.027707443 0.030474486
-0.02758197 0.009507127 0.018660394 0.013035715 -0.043800022 0.060190137 0.03476162 0.02934235
0.030725759 0.0054271417 -0.006505105 0.02983577 -0.044854473 -0.021789085 0.017851623 0.027484855
0.039404668 -0.033194084 -0.007133297 0.055704378 0.004679792 0.04222517 0.05277064 0.052127466
-0.011348788 0.041289337 0.0439126 -0.010874406 -0.051439174 -0.0047419714 -0.038043063 0.050776545
-0.018650074 0.03791746 -0.0003538648 -0.014638112 -0.017421264 -0.03959226 0.013124435 -0.032995723
00000000: bf4e f03c 9d1e 18bd f6cf 53bd ffb6 ea3b
00000010: 5ac5 79bc 1916 583d 189b 33bd f717 273b
00000020: d01f ad3c d05a 4a3d fcd8 153d 360b f0bc
00000030: 2692 db3c 49bc 51bd e6bf 47bd ca00 59bc
00000040: 6e60 4cbc ef17 01bc d4b9 743c 0e14 b2bc
00000050: 8c5e 35bc a933 e5bc 4edd da3c 57e9 8bbc
00000060: f2dd 673d 7eec ea3b de1d 9c3c eb46 4d3d
00000070: d286 09bd 5fee 21bd b939 82bc a96e e7bc
00000080: 36b8 36bd f100 ea3c 2fa9 4e3c ff81 333d
00000090: 91ba f33c 6781 3dbd bf0f 7d3c 1b23 69bd
000000a0: 0cab 10bb 22da c93b f9ee 433d 7ce4 763c
000000b0: 8dfc 423d 887c cebc 87f6 fb3c bbdf 4e3d
000000c0: b909 1d3d d4da f6bb 463f bb3c c9b2 273d
000000d0: c7b2 263d e38e 8f3c e509 ee3c 1256 373d
000000e0: 58eb 423d aedc a0bb 829a c0bc 11ca 143d
000000f0: 3594 08bd 5d69 323d 5f09 773a b9cf b93b
00000100: b39f ce3c aab5 363b 3f29 bc3c 0576 fa3c
00000110: 700e cdbc e736 f93b d6fa 0ebd e50f 42bd
00000120: 2bcf c43c 3e06 1c3d 6f9d d5bb 802a bfbb
00000130: d47f 6a3d 74b2 3ebd 3c5f 3e3d e922 39bb
00000140: 153b 6fbd a535 a63c 1780 693d b49c 813c
00000150: e49b 093d 2121 29bd 6a30 1cbd a566 3fbd
00000160: 9857 bd3c df04 1f3d f7b4 2c3c 7019 27bd
00000170: c9b9 f53c 501e 453d b057 11bd 9ef9 3c3d
00000180: 9e01 493d 7f50 afbc 0109 1fbd 0093 da3b
00000190: 43de 52bd 4df8 34bc ea8d dd3c 0b49 863c
000001a0: 62ee e53c f6b6 033c 9347 953b 8632 6bbd
000001b0: e8d4 8f3c 2c76 b6bc c128 473d ea7c 5fbd
000001c0: 5bdb 06bd 0168 113d 7b2e 3ebd 4c3e 563d
000001d0: 95ff ce3c b1aa 4dbd 4e26 893c 31b1 43bd
000001e0: e834 f23b b13c 00bd 1ee1 983c fd61 d7bc
000001f0: 1abb 55bd 476b dcbc 7250 b73b 69d4 5bba
00000200: c2a3 503d 0c4f 3d3c e605 46bd 7102 d03c
00000210: 289a 293c 8ffd 04bd c919 413d a6ce 27bd
00000220: 925b ff3c 5a66 3ebd 94b8 1cbd 1c7f 18bd
00000230: ea39 e3bb d9ce 65bd 3a26 523d 17b2 40bd
00000240: cf00 e4bc 4ceb 163d adff 733b f6fa d43c
00000250: 9c38 18bd aaf0 333d 5731 673c 5332 d33c
00000260: 24e3 7d3c 1017 513a aac5 debc 05ae d5bc
00000270: 8a12 abbc d7df 6d3d 4f8c 80bd 7641 9d3c
00000280: 6027 15bc 5285 a03c c0f3 1a3c 408c 383d
00000290: eceb 0ebd 71a0 763d 7e4e 303d b169 653d
000002a0: a0c0 303c 61e9 8dbc 3860 7f3d ba06 a9bc
000002b0: 2c03 aebc 1e7a 12bb 1c76 0a3d a745 85bc
000002c0: 6816 4abd 2f22 0bbc a98b 0c3d f3a8 64bc
000002d0: 4929 acbc a782 6ebd c2f9 7a3c dedf 78bd
000002e0: 9ee5 5a3c b87c 6f3d d57f 39bd a720 a73c
000002f0: 85e4 06bd 5e41 09bd 9d4d 8d3b 4a4c 0b3d
00000300: 4660 82bc ff40 0a3c dd9a 82bc 8285 363d
00000310: f349 ad3c 454e f5bc bc05 483d 5e10 bf3b
00000320: 4679 613c d9de 763c 2fc4 d33c fde1 0fbc
00000330: 9469 3b3d cdb0 eb3b 658b ac3c 2b00 b13c
00000340: e0c7 6fbd cb30 063d 01a1 473c 6cad 12bd
00000350: a73d 9abc bf1c f23a b8fa e2bc a1a5 f93c
00000360: 95f3 e1bc c8c3 1b3c afdd 983c c093 553c
00000370: a767 33bd ef89 763d 3362 0e3d 5e5f f03c
00000380: 96b4 fb3c 2ad6 b13b c728 d5bb 256a f43c
00000390: 53b9 37bd 067f b2bc 913d 923c eb27 e13c
000003a0: ca66 213d 85f6 07bd 6fbe e9bb 462a 643d
000003b0: f158 993b 4df4 2c3d 0726 583d 9c83 553d
000003c0: 44f0 39bc 021f 293d b3dd 333d 912a 32bc
000003d0: e2b1 52bd 8a62 9bbb 0bd3 1bbd 11fb 4f3d
000003e0: 0ac8 98bc 574f 1b3d ee86 b9b9 b1d4 6fbc
000003f0: 0ab7 8ebc 7e2b 22bd df07 573c 8626 07bd

0.bias f4 [256]
0.05235699 -0.7042476 0.0053751315 -0.33169633 -0.134972 0.0032525442 -1.0838218 0.02504559
0.04722679 0.004523756 -0.106449746 -0.4897913 -0.6841349 -0.7247721 0.08667892 0.048026826
-0.17683494 -0.0881405 0.0743704 -0.04724468 0.14610034 0.10435654 -0.072901994 0.08111712
0.040845327 -0.009184556 -0.054665353 0.077964984 -0.060813032 -0.05376333 -0.6605977 -0.03391235
-1.0770437 0.051833738 0.0043228893 -0.7340052 0.007972152 -0.33711967 -0.52250046 -0.50204843
-0.52523035 -0.9563308 0.13106452 -0.3097682 0.062113296 -0.3356962 -0.27381703 0.21766192
-0.8621149 0.02018829 0.10816933 0.014293051 0.038436998 -0.6120414 0.27440754 -0.7720829
0.0043270583 -0.1241015 0.056486852 -0.008689943 0.028707046 0.009754426 -0.7387199 0.2409206
-0.800163 -0.054804936 0.09280337 0.011129395 0.05486832 0.039817065 -0.4962125 -0.097898565
0.03755231 -0.000724795 -0.0041422867 -0.0064243656 -0.063435815 -0.018484728 -0.011532819 0.011384346
-1.0371352 -0.8311011 -0.79531366 -0.93077123 0.06117031 0.029297845 -0.766329 0.013902968
-0.5552022 -0.7201827 -0.06323051 -0.25951713 0.06794096 -0.99323744 0.034470838 -0.1754981
-0.7333661 -0.54657346 -0.7706106 -0.014139119 0.0049396222 -0.045147814 -0.041733317 0.16458449
-0.67191637 -0.03654704 0.00025882255 0.03656566 -0.78359807 -0.037595686 -0.046360385 0.046752665
0.0009117227 -0.29810783 -0.66864526 -0.046785325 -0.023296261 -0.005339552 -0.04216839 -0.22211158
-0.8032803 0.030587973 0.03161271 0.21410032 -0.95168 0.037779555 -0.0070840144 -0.006949643
0.032030888 0.038122978 -0.057322655 0.029926673 -0.02472488 -0.010174274 -0.16797404 -1.0927256
0.03070695 -0.060892798 -0.641447 -0.030298557 -0.28077638 -0.52238274 -1.0196271 0.14526477
-0.93510854 -0.38904354 -0.04837514 -0.74479365 -0.67984986 0.15448947 0.2548511 -0.6296128
-0.0012043625 -0.81082743 -0.24939254 0.17617859 -0.26270992 0.0036795172 -0.029853981 0.013284798
-0.024699135 -0.1612161 0.008237802 -0.38623744 -0.03528632 -0.15443517 0.008336977 0.26271725
0.31501776 -1.0236156 -0.7165795 0.03620648 -0.003739008 0.020829616 0.12588644 -0.28167775
-0.02362182 -0.4768038 -0.021142125 -0.9716876 0.026213815 0.07606407 0.028658733 -0.030149179
-0.824985 -0.055614565 -0.51200026 0.10748649 -0.80292225 -0.9476164 0.022540217 -0.31319508
7.6374265e-05 -0.94632846 0.014133454 -0.73062205 0.10417521 0.042014755 -0.0073136976 0.13238767
-0.85267204 0.07134421 -0.044556558 0.06391434 -0.596788 -0.18189304 -0.11010879 -0.037996374
-0.3848535 0.026310958 0.020267852 -0.12921184 -1.0555192 -0.60712785 -0.032736834 -0.09339563
-0.6823921 -0.013730479 0.04935607 -0.6751527 0.029594602 -0.16352504 -0.24808025 -0.0826847
-0.03608295 -1.0287448 0.001983314 0.07192481 -0.00032339248 -0.037493393 0.0564568 0.04600733
-0.034967534 -0.26381376 -0.03988014 -0.5036065 -1.0836645 -0.0143268425 -0.04093908 0.12670662
-0.5277684 -0.8651 -0.7259596 -1.0267375 -0.03610777 -0.6546211 -0.05186931 -0.6713107
0.09572523 -1.1946243 -1.0852922 -0.040038504 -0.13820851 -0.0694807 -0.1695536 0.019458449
00000000: 4874 563d 9249 34bf df21 b03b 1ad4 a9be
00000010: 1a36 0abe a328 553b acba 8abf 692c cd3c
00000020: e170 413d 043c 943b 5302 dabd edc5 fabe
00000030: 7723 2fbf aa8a 39bf b884 b13d c7b7 443d
00000040: 3814 35be 0283 b4bd 824f 983d a383 41bd
00000050: 549b 153e e2b8 d53d a44d 95bd bc20 a63d
00000060: 6e4d 273d d27a 16bc c7e8 5fbd 1bac 9f3d
00000070: 1617 79bd f036 5cbd ee1c 29bf ade7 0abd
00000080: 91dc 89bf 9d4f 543d 06a7 8d3b c4e7 3bbf
00000090: a19d 023c f39a acbe 97c2 05bf 3f86 00bf
000000a0: 7f75 06bf 18d2 74bf c735 063e f099 9ebe
000000b0: 836a 7e3d 5fe0 abbe bf31 8cbe c4e2 5e3e
000000c0: 90b3 5cbf ea61 a53c e287 dd3d 672d 6a3c
000000d0: 1d70 1d3d bfae 1cbf 257f 8c3e 3aa7 45bf
000000e0: ffc9 8d3b ed28 febd c25e 673d 4360 0ebc
000000f0: 0a2b eb3c 07d1 1f3c bf1c 3dbf e4b3 763e
00000100: 7bd7 4cbf 247b 60bd b10f be3d 1158 363c
00000110: 9abd 603d 3817 233d 910f febe 0b7f c8bd
00000120: 73d0 193d 2b00 3eba 05bc 87bb 7c83 d2bb
00000130: a3ea 81bd 496d 97bc 26f4 3cbc 6885 3a3c
00000140: d9c0 84bf 0bc3 54bf ad99 4bbf 0647 6ebf
00000150: b88d 7a3d 0902 f03c 232e 44bf 46c9 633c
00000160: bb21 0ebf e55d 38bf ff7e 81bd 6edf 84be
00000170: a124 8b3d cf44 7ebf 4b31 0d3d c6b5 33be
00000180: e1bd 3bbf 3dec 0bbf bc46 45bf c3a7 67bc
00000190: 8edc a13b eaec 38bd 8ef0 2abd d688 283e
000001a0: b602 2cbf 59b2 15bd 93b2 8739 e0c5 153d
000001b0: e299 48bf effd 19bd 63e4 3dbd b97f 3f3d
000001c0: ad00 6f3a 97a1 98be 562c 2bbf f8a1 3fbd
000001d0: cdd7 bebc 69f7 aebb c3b8 2cbd 3871 63be
000001e0: c7a3 4dbf a193 fa3c 547c 013d 1d3d 5b3e
000001f0: 4da1 73bf bcbe 1a3d 0521 e8bb d5b9 e3bb
00000200: d232 033d d726 1c3d 29cb 6abd c828 f53c
00000210: d58b cabc 00b2 26bc 6301 2cbe 6fde 8bbf
00000220: 248d fb3c ba6a 79bd df35 24bf ae34 f8bc
00000230: ecc1 8fbe e0ba 05bf 2483 82bf 4ac0 143e
00000240: 4663 6fbf b730 c7be 0325 46bd ccaa 3ebf
00000250: a40a 2ebf 7d32 1e3e d87b 823e 4e2e 21bf
00000260: b3db 9dba 6392 4fbf c260 7fbe 2968 343e
00000270: ea81 86be 0e24 713b 5690 f4bc 7ba8 593c
00000280: d755 cabc d515 25be d9f7 063c eac0 c5be
00000290: 6388 10bd 4124 1ebe d197 083c e082 863e
000002a0: 024a a13e d605 83bf c171 37bf 3f4d 143d
000002b0: 250a 75bb dfa2 aa3c 60e8 003e 1138 90be
000002c0: 8c82 c1bc a11f f4be 4032 adbc 85c0 78bf
000002d0: 5bbe d63c 7bc7 9b3d b8c5 ea3c 69fb f6bc
000002e0: 3832 53bf 19cc 63bd 7312 03bf e021 dc3d
000002f0: 508c 4dbf fd96 72bf 43a6 b83c 1b5b a0be
00000300: 1f2b a038 9542 72bf 0190 673c 0c0a 3bbf
00000310: d059 d53d aa17 2c3d bea7 efbb a290 073e
00000320: b748 5abf ea1c 923d f080 36bd 86e5 823d
00000330: 19c7 18bf 2b42 3abe b880 e1bd 16a2 1bbd
00000340: 850b c5be 148a d73c c408 a63c 1c50 04be
00000350: 411b 87bf bb6c 1bbf 0f17 06bd 3546 bfbd
00000360: 40b1 2ebf cef5 60bc 9729 4a3d cfd6 2cbf
00000370: 6170 f23c 1c73 27be c008 7ebe 9956 a9bd
00000380: b7cb 13bd e9ad 83bf 7dfa 013b 514d 933d
00000390: 018d a9b9 ac92 19bd 3f3f 673d 2f72 3c3d
000003a0: 1e3a 0fbd 9912 87be 5c59 23bd 5bec 00bf
000003b0: 85b5 8abf 22bb 6abc bdaf 27bd 61bf 013e
000003c0: d41b 07bf 3277 5dbf 7dd8 39bf 226c 83bf
000003d0: bee5 13bd 4095 27bf ea74 54bd 05db 2bbf
000003e0: 970b c43d 73e9 98bf dbea 8abf 6aff 23bd
000003f0: 8886 0dbe e64b 8ebd 759f 2dbe 5367 9f3c

2.weight f4 [256, 256]
-0.055683896 0.05339109 -0.023659986 -0.01671531 -0.025250528 -0.012487337 -0.038084075 -0.047135744
0.03321623 0.015047614 -0.047415107 0.018622998 -0.043601196 -0.033370566 -0.026395138 -0.060928054
-0.01310835 -0.026699118 -0.063675016 0.040762607 -0.020044953 -0.012915865 0.038841616 -0.063980766
0.027344331 0.05440115 -0.014066398 -0.020829067 0.059543125 -0.011524871 -0.051406972 0.043221146
0.046624392 0.031675614 0.043411754 0.008493602 -0.046435736 -0.008270049 -0.06370835 -0.019340187
-0.02075698 -0.054172453 0.054553416 -0.0092152655 0.017544791 -0.025450423 0.048595116 -0.061550707
-0.046630252 -0.014284193 -0.007532161 0.038110882 -0.040103696 -0.037989326 -0.01303909 0.034126844
0.040173464 0.02825911 0.034744658 -0.04029183 0.03040567 -0.039341472 0.04188446 0.019663919
0.0010894835 -0.03594858 0.058472313 -0.016919158 -0.03868358 -0.025661558 -0.0123509765 0.047196895
0.02476342 -0.04664839 0.034932323 -0.04724387 0.05622658 0.01833009 0.009398225 -0.036386155
0.0058600586 -0.03143392 -0.01949731 0.032943953 -0.05847782 0.00050794333 0.0062654093 -0.025068901
0.015742203 -0.049185302 0.01589024 -0.061483726 0.026164357 0.045223046 0.0602884 -0.014435001
-0.02061476 -0.014044203 -0.061469853 0.016114123 -0.021877728 -0.040601984 -0.06044597 -0.044034533
-0.027097104 -0.0012839674 0.030623183 -0.025386706 -0.049390554 -0.0123696625 -0.05766008 -0.054687083
-0.043859005 -0.03433934 0.018325992 0.044876993 -0.038041957 -0.052761324 -0.0064546913 -0.03399733
0.01961302 0.026645467 -0.03727886 -0.0207958 0.0018824193 0.030935138 0.05873625 -0.019861229
-0.059149995 -0.005290404 -0.01785215 -0.06097796 -0.019984387 -0.033108994 0.0192364 0.034007963
0.008066528 -0.043125704 0.041633476 -0.060593434 -0.020255467 -0.035453267 -0.027029846 -0.06094274
-0.045785613 -0.0058079795 -0.06061542 -0.03349247 -0.06400847 0.04211328 -0.04047107 0.03632528
-0.060786933 0.0018210787 0.060856387 -0.048893612 0.02814251 -0.0040600374 0.0038109273 0.017945208
0.04725475 0.058856323 0.013608336 0.050083857 -0.04683715 -0.065347366 0.020531952 -0.018764172
0.0056865662 0.025154607 0.048322886 -0.05340554 -0.03938084 0.019685104 -0.044180952 0.006926462
0.02408439 -0.019835306 0.03462179 0.046846885 0.032036945 0.052191377 -0.045469947 0.033811912
-0.04292076 0.0023709834 0.05219221 0.044692673 -0.03808492 -0.049131706 0.014366745 -0.0072706193
-0.030163048 0.011416107 -0.036289603 0.0050863475 -0.05720713 0.043928936 -0.023750022 0.024013992
-0.03290464 -0.062390544 0.00852067 -0.029606573 0.048717275 -0.00453113 0.027637064 0.011268427
0.025764542 -0.018474057 0.015244557 0.052280694 0.044171147 -0.0012468472 -0.008662149 -0.0350456
0.0048150974 -0.0032675564 -0.05857276 0.03806156 -0.038912892 0.018230148 0.007486788 -0.05199652
0.019922316 -0.0004030101 0.058966286 0.042694893 0.024951227 -0.058268994 -0.029938094 -0.022091754
-0.035423137 0.055766813 0.057356916 -6.7377565e-05 -0.013960705 0.011304736 -0.02344016 -0.00034176558
-0.0383947 -0.05849088 0.048585076 -0.01071392 0.04968106 -0.015230861 0.022449873 0.040940184
-0.029859321 -0.059201896 0.0024198228 0.010297168 0.031984188 -0.04114873 0.0506515 -0.061215527
00000000: cc14 64bd 9eb0 5a3d 96d2 c1bc 8cee 88bc
00000010: 32da cebc b097 4cbc 0cfe 1bbd 6911 41bd
00000020: be0d 083d 458a 763c 5836 42bd 428f 983c
00000030: 2b97 32bd 93af 08bd 9e3a d8bc b28f 79bd
00000040: 68c4 56bc 1cb8 dabc 0c68 82bd b1f6 263d
00000050: 5035 a4bc 109d 53bc 6318 1f3d 5908 83bd
00000060: 3801 e03c bed3 5e3d c076 66bc b8a1 aabc
00000070: 7ee3 733d d0d2 3cbc 1e90 52bd a808 313d
00000080: 38f9 3e3d 4abe 013d 86d0 313d c028 0b3c
00000090: 6633 3ebd 197f 07bc 8679 82bd 506f 9ebc
000000a0: 8b0a aabc efe3 5dbd 6773 5f3d a0fb 16bc
000000b0: 18ba 8f3c 687d d0bc ac0b 473d 981c 7cbd
000000c0: 5dff 3ebd 3f08 6abc 59d0 f6bb 281a 1c3d
000000d0: c643 24bd b29a 1bbd e8a1 55bc 97c8 0b3d
000000e0: ee8c 243d a67f e73c 6a50 0e3d 0c09 25bd
000000f0: 5015 f93c 8624 21bd 0a8f 2b3d 3a16 a13c
00000100: 00cd 8e3a d13e 13bd aa80 6f3d 0c9a 8abc
00000110: ac72 1ebd 3038 d2bc c05b 4abc 8851 413d
00000120: a8dc ca3c 6212 3fbd 3215 0f3d ca82 41bd
00000130: d84d 663d fc28 963c 03fb 193c a609 15bd
00000140: bc05 c03b dbc0 00bd d3b8 9fbc 3df0 063d
00000150: 7086 6fbd 8027 053a 104e cd3b 4c5d cdbc
00000160: cbf5 803c 8776 49bd 402c 823c 5cd6 7bbd
00000170: a256 d63c cd3b 393d f8f0 763d c880 6cbc
00000180: 49e0 a8bc a819 66bc d0c7 7bbd c401 843c
00000190: ec38 b3bc 444e 26bd 3296 77bd 8e5d 34bd
000001a0: bffa ddbc cc4a a8ba 78dd fa3c c8f7 cfbc
000001b0: c04d 4abd 20aa 4abc fa2c 6cbd 90ff 5fbd
000001c0: 80a5 33bd 68a7 0cbd 6420 963c f0d0 373d
000001d0: e2d1 1bbd 421c 58bd e081 d3bb c940 0bbd
000001e0: 7cab a03c 9847 da3c b8b1 18bd f45b aabc
000001f0: 83bb f63a b06b fd3c 6c95 703d 04b4 a2bc
00000200: 4447 72bd 205b adbb ac3e 92bc 06c4 79bd
00000210: 4cb6 a3bc 4c9d 07bd a895 9d3c ef4b 0b3d
00000220: 7829 043c 94a4 30bd dd87 2a3d d230 78bd
00000230: cbee a5bc 7237 11bd b26d ddbc 189f 79bd
00000240: b289 3bbd dd50 bebb e047 78bd 662f 09bd
00000250: df16 83bd fa7e 2c3d fec4 25bd d1c9 143d
00000260: b8fb 78bd 43b1 ee3a 8c44 793d ab44 48bd
00000270: 1f8b e63c 100a 85bb c0c0 793b d401 933c
00000280: 328e 413d 5413 713d 80f5 5e3c bb24 4d3d
00000290: 50d8 3fbd d7d4 85bd a032 a83c 52b7 99bc
000002a0: 6056 ba3b 0911 ce3c 38ee 453d c4bf 5abd
000002b0: ce4d 21bd a842 a13c 16f7 34bd 60f7 e23b
000002c0: a04c c53c a77d a2bc 94cf 0d3d 85e2 3f3d
000002d0: 2c39 033d a0c6 553d b23e 3abd 5c7e 0a3d
000002e0: aecd 2fbd 8062 1b3b 80c7 553d aa0f 373d
000002f0: effe 1bbd 543e 49bd 7f62 6b3c 603e eebb
00000300: 7f18 f7bc a00a 3b3c 68a4 14bd 60ab a63b
00000310: 0652 6abd d4ee 333d 688f c2bc feb8 c43c
00000320: 04c7 06bd 3a8d 7fbd 489a 0b3c 7c89 f2bc
00000330: c48b 473d e079 94bb 2067 e23c 359f 383c
00000340: 2910 d33c e856 97bc 4ec4 793c 4824 563d
00000350: ceec 343d 406d a3ba b0eb 0dbc fa8b 0fbd
00000360: f7c7 9d3b 8024 56bb fee9 6fbd 70e6 1b3d
00000370: 2063 1fbd 6457 953c bb53 f53b 4efa 54bd
00000380: 2034 a33c 1a4b d3b9 a286 713d d7e0 2e3d
00000390: 8466 cc3c 78ab 6ebd bc40 f5bc c4f9 b4bc
000003a0: da17 11bd be6b 643d 16ef 6a3d 0e4d 8db8
000003b0: 71bb 64bc 8037 393c 9405 c0bc 002f b3b9
000003c0: c343 1dbd 2294 6fbd 2501 473d 7089 2fbc
000003d0: 5e7e 4b3d dc8a 79bc cce8 b73c e5b0 273d
000003e0: 899b f4bc b07d 72bd e495 1e3b 74b5 283c
000003f0: da01 033d 928b 28bd f277 4f3d 22bd 7abd

2.bias f4 [256]
0.01641701 -0.039844345 0.03942719 0.008754581 0.05091709 0.005803548 -0.11093111 -0.060420837
0.042931616 -0.031409644 0.010912248 -0.030784229 -0.041627906 -0.025601184 -0.03638254 0.001495276
-0.05894466 0.048953354 -0.02010247 0.012024498 0.04897323 0.01502334 -0.06903553 0.030856011
0.038523678 -0.051636275 0.048647862 -0.017625477 -0.015154938 -0.035755884 -0.023921343 -0.033693038
0.006360525 0.027589211 -0.0036097055 0.019117346 -0.025302116 0.028215727 -0.040201295 -0.09295537
0.041575346 0.018257868 -0.04269115 0.040380154 0.039170116 -0.038274407 -0.0633955 -0.08000678
-0.0643331 0.0592218 -0.0033170956 0.026853405 -0.06389445 -0.018066175 -0.0072051403 -0.01631513
-0.036707345 -0.036049083 0.03637712 0.020387195 -0.05787909 -0.038491003 -0.054980733 0.038529076
-0.014103533 -0.04266279 -0.07809135 -0.029311866 0.035659183 -0.0630778 0.09228857 -0.046259858
-0.025517598 -0.067969084 -0.028753286 -0.0248115 0.0007793189 0.02147386 0.012427585 0.10344712
0.00489637 -0.018326974 0.027189584 -0.075386494 -0.011800378 -0.06208042 -0.009946505 -0.056809857
-0.046666477 -0.06618875 -0.047683187 -0.010480409 -0.029759185 0.009533794 0.06070009 -0.022356488
0.03649213 -0.04660461 0.049218416 -0.076265596 -0.05964144 0.03260885 0.043591056 0.002128228
-0.06437984 -0.062166236 -0.09832474 0.024747673 -0.062289186 -0.032600645 0.013186706 -0.04090922
-0.031584296 0.00034271754 0.0046754787 0.07251638 -0.010093912 -0.054314356 -0.040633366 -0.014322859
-0.007151465 -0.043905817 0.015930137 -0.052841943 -0.049546357 -0.02001297 -0.009879211 -0.056751672
-0.021989975 -0.03414459 0.032908414 -0.05627558 0.0012791245 -0.0010121525 -0.027698008 -0.025887268
0.009125559 0.027658015 -0.0107653355 -0.0039851484 -0.0462086 -0.10283319 0.045373186 -0.027322272
0.012432184 -0.08391668 -0.047352258 -0.024473503 -0.0645916 -0.079165034 0.049635056 -0.020720381
-0.046499267 -0.046057355 0.07445643 -0.035180077 -0.036967795 -0.010772635 -0.05501939 -0.067868546
-0.033556923 -0.040509332 0.0041227844 0.043516044 -0.043923248 0.02504116 0.0008752058 -0.016058128
0.108029425 -0.0059984894 -0.051624127 -0.005228124 -0.06554487 -0.05176459 -0.07080184 0.054983176
0.04225502 -0.00457971 -0.066389434 0.0028107506 -0.014646978 -0.0049141627 -0.027601473 -0.0036372845
0.013616328 0.020267935 0.01050825 0.053138465 -0.039827578 0.043687403 0.007691685 0.030452587
-0.053550836 -0.07276211 -0.010690832 -0.024614925 -0.03196629 -0.017123055 -0.019533748 0.0518504
0.031715997 -0.008147412 -0.04022175 -0.009514265 -0.03267721 -0.022723772 -0.043591615 -0.11963465
-0.024764815 -0.012577971 -0.0238506 -0.0074842046 -0.0147517845 0.0067413626 0.029576445 0.016540244
-0.008578159 -0.078720324 -0.040093064 -0.024633002 0.042498343 -0.014422012 -0.09580996 0.033751123
-0.0024639433 0.01057682 -0.011684317 -0.066714786 -0.1046232 -0.027745383 -0.06422309 0.02660366
-0.002516426 0.0024940025 -0.0005591936 0.012672478 0.05517328 0.0070602945 0.017976018 -0.024440816
-0.058270607 0.04335337 0.018562555 0.019640934 0.000111924775 -0.012332378 0.026588278 -0.019862026
0.0026005504 0.02050352 -0.06452649 0.03640002 -0.020231457 0.086836316 0.045206163 -0.05143363
00000000: f77c 863c d333 23bd 687e 213d 606f 0f3c
00000010: 708e 503d b02b be3b da2f e3bd d77b 77bd
00000020: 10d9 2f3d 66a7 00bd 49c9 323c 352f fcbc
00000030: 0682 2abd 93b9 d1bc dc05 15bd 23fd c33a
00000040: f56f 71bd 5083 483d efad a4bc 6602 453c
00000050: 2798 483d 7424 763c 8062 8dbd bfc5 fc3c
00000060: 01cb 1d3d 8f80 53bd fb42 473d 4e63 90bc
00000070: 6b4c 78bc c374 12bd b1f6 c3bc b601 0abd
00000080: f36b d03b c502 e23c cf90 6cbb fb9b 9c3c
00000090: 6246 cfbc ab24 e73c 1daa 24bd 635f bebd
000000a0: e94a 2a3d 8691 953c eadc 2ebd a965 253d
000000b0: d870 203d a0c5 1cbd 80d5 81bd 98da a3bd
000000c0: 13c1 83bd 8f92 723d a163 59bb acfb db3c
000000d0: 18db 82bd 84ff 93bc 1919 ecbb 4fa7 85bc
000000e0: 715a 16bd 34a8 13bd 2d00 153d 0c03 a73c
000000f0: a012 6dbd bea8 1dbd 7a33 61bd aad0 1d3d
00000100: 8112 67bc 2dbf 2ebd 5cee 9fbd 701f f0bc
00000110: 5d0f 123d ef2e 81bd ca01 bd3d fa7a 3dbd
00000120: 480a d1bc 6033 8bbd 038c ebbc 7d41 cbbc
00000130: 354b 4c3a f3e9 af3c 129d 4b3c 15dc d33d
00000140: bb71 a03b 7322 96bc b1bc de3c 3c64 9abd
00000150: 5f56 41bc 0a48 7ebd aaf6 22bc 74b1 68bd
00000160: 5925 3fbd f88d 87bd 724f 43bd 05b6 2bbc
00000170: 89c9 f3bc a133 1c3c a8a0 783d f424 b7bc
00000180: c678 153d 7ae4 3ebd 4099 493d 2331 9cbd
00000190: 954a 74bd dc90 053d 898c 323d be79 0b3b
000001a0: 94d9 83bd 06a2 7ebd 7b5e c9bd a2bb ca3c
000001b0: f222 7fbd 4188 05bd 0e0d 583c 6d90 27bd
000001c0: 895e 01bd c5ae b339 c234 993b 7883 943d
000001d0: ef60 25bc bb78 5ebd 2c6f 26bd 6daa 6abc
000001e0: d656 eabb 96d6 33bd eb7f 823c cb70 58bd
000001f0: 1ff1 4abd 3df2 a3bc 6adc 21bc 7174 68bd
00000200: 5224 b4bc 33db 0bbd f9ca 063d 3981 66bd
00000210: 4ca8 a73a 34aa 84ba efe6 e2bc 8911 d4bc
00000220: 5e83 153c 1093 e23c 1761 30bc d995 82bb
00000230: 3b45 3dbd 359a d2bd 3cd9 393d f5d2 dfbc
00000240: 5cb0 4b3c 82dc abbd 71f4 41bd a87c c8bc
00000250: 9a48 84bd 4721 a2bd 214e 4b3d cabd a9bc
00000260: 0476 3ebd a3a6 3cbd 9d7c 983d fc18 10bd
00000270: 8b6b 17bd b57f 30bc 035c 61bd aafe 8abd
00000280: fc72 09bd 1ded 25bd 6c18 873b e13d 323d
00000290: dde8 33bd 1e23 cd3c 116e 653a 568c 83bc
000002a0: 883e dd3d fa8e c4bb d273 53bd af50 abbb
000002b0: 643c 86bd 1b07 54bd 8e00 91bd 0a36 613d
000002c0: 9a13 2d3d 6411 96bb 2ff7 87bd 9234 383b
000002d0: e1f9 6fbc fc06 a1bb 7c1c e2bc 825f 6ebb
000002e0: 0517 5f3c f108 a63c cc2a 2c3c b8a7 593d
000002f0: 3e22 23bd 90f1 323d 880a fc3b b477 f93c
00000300: 1f58 5bbd 4d04 95bd 9928 2fbc 3da5 c9bc
00000310: 16ef 02bd a645 8cbc 3d05 a0bc 1661 543d
00000320: a2e8 013d b97c 05bc 90bf 24bd b8e1 1bbc
00000330: 8ad8 05bd 3427 babc 1f8d 32bd 0303 f5bd
00000340: 95df cabc d613 4ebc 5562 c3bc 0f3e f5bb
00000350: 78b1 71bc a6e6 dc3b 4d4a f23c 687f 873c
00000360: 688b 0cbc 1f38 a1bd a038 24bd 26cb c9bc
00000370: be12 2e3d 4d4a 6cbc 0338 c4bd 9e3e 0a3d
00000380: 1c7a 21bb 664a 2d3c 946f 3fbc c3a1 88bd
00000390: b044 d6bd 494a e3bc 6587 83bd ebef d93c
000003a0: 9fea 24bb 6b72 233b d996 12ba 3aa0 4f3c
000003b0: 61fd 613d 0b5a e73b 7142 933c 1b38 c8bc
000003c0: 29ad 6ebd 4e93 313d 8010 983c 06e6 a03c
000003d0: 28b9 ea38 be0d 4abc a9cf d93c b0b5 a2bc
000003e0: ff6d 2a3b fff6 a73c 7726 84bd 3018 153d
000003f0: 71bc a5bc 3dd7 b13d 192a 393d 12ac 52bd

4.weight f4 [32, 256]
-0.024229623 -0.03300592 0.062155545 -0.038395017 0.035512332 0.012116541 0.01756088 0.043402623
0.0050658016 -0.049105633 0.03637402 0.013364433 0.0070701945 0.0025987606 0.021349765 -0.012346807
0.06232653 0.028793959 0.01278192 -0.00026038673 -0.011776157 0.022715215 -0.024784114 -0.018923778
0.023268655 -0.034150977 0.042508066 0.018218376 0.02829651 -0.02675417 0.010467091 -0.059932996
-0.040638186 -0.022763005 -0.0002444312 -0.030309575 0.005121787 -0.01860001 0.0047202273 0.008681654
0.056584053 -0.053999316 0.05578343 0.045315158 0.04822307 0.041883156 0.017087629 0.0147982715
-0.05050643 0.011953347 0.013824396 -0.01886297 -0.041525636 -0.0038293977 0.009279299 -0.04673202
0.047403008 -0.007543817 0.00060061365 -0.0533997 -0.01674639 0.02292384 0.020773262 -0.032391928
0.034121223 -0.02438765 -0.016383281 -0.049517706 0.05225619 0.029755747 0.030787632 0.03890433
0.027424926 -0.03946776 0.030936709 0.013497774 0.009207704 -0.027419932 -0.0021961275 0.00996187
-0.05104799 0.033756707 0.013087911 -0.0061687664 -0.0399006 -0.029760268 0.011478886 -0.06475554
0.0061211046 0.020758687 0.018592844 0.027327029 0.044336237 0.0028586532 -0.03293088 0.034443516
-0.029120259 -0.03986271 0.055213038 -0.0018179241 -0.043548573 -0.0017231536 0.01871332 0.027235586
0.046667673 0.032801997 -0.04057246 0.06086798 -0.033011936 -0.052169938 0.03855625 -0.032692764
0.046738885 -0.047792073 -0.016363773 -0.05520407 -0.047741514 0.031871293 0.003659781 0.03201001
-0.025076604 -0.034094878 -0.002855795 0.045363612 -0.022953173 0.015269227 -0.0054414873 0.011267252
0.023452649 0.042252067 -0.03765893 -0.06225445 -0.0087739155 0.029587805 0.0105121955 -0.027612895
-0.05504282 -0.060733143 -0.06238524 0.043380477 -0.014370234 -0.033091545 -0.033140745 -0.0100318985
-0.036217827 -0.03065979 -0.047528923 -0.06670084 -0.04222411 -0.06152787 -0.011895613 0.03187625
-0.05242429 0.009239738 -0.058997467 0.033564698 -0.056708887 -0.0067857835 0.050010487 0.046179328
0.003274873 0.043966047 -0.03554428 -0.053631015 0.05484196 -0.00834806 -0.04749263 -0.0043147504
-0.06403714 -0.034278054 0.053768754 0.039045624 0.024789581 -0.017310634 -0.038681697 0.016221106
0.048243314 -0.0057194433 -0.058668926 0.04409802 0.048658285 -0.015894955 -0.050391495 0.020869713
-0.009116826 0.03868471 0.050434187 -0.03810383 -0.044912506 -0.0355877 0.021196116 -0.03336574
0.0027864352 -0.0059533524 0.031402096 -0.033318534 -0.038397707 -0.055057485 -0.051989272 -0.016785583
0.0443251 -0.057816554 0.057084866 -0.033529837 -0.06387911 -0.05460051 -0.008080831 0.014079532
0.021855924 0.025004009 0.029373258 0.025047448 0.032490272 -0.04388388 -0.040526524 0.052194543
0.00865607 0.016738854 -0.018660659 0.06335555 0.013389444 0.056849655 0.024703968 -0.051435664
0.03596182 -0.0022282097 -0.042982973 -0.06334245 -0.053280253 -0.015899895 0.008872463 -0.05234606
0.010024771 0.041061476 0.056045994 0.048285916 0.029421091 0.0020902306 0.052633792 0.0035547626
0.021068793 -0.020524822 0.054353178 -0.039693914 0.055090398 -0.0010805094 -0.060307205 0.046475545
0.050820306 0.041391548 0.02967174 -0.0049992916 -0.009151183 -0.028272718 -0.035582073 -0.060332824
00000000: 347d c6bc 3731 07bd d096 7e3d 1844 1dbd
00000010: 6175 113d 7584 463c d6db 8f3c f3c6 313d
00000020: 06ff a53b fd22 49bd edfc 143d 7ff6 5a3c
00000030: 17ad e73b f84f 2a3b b4e5 ae3c 434a 4abc
00000040: 1b4a 7f3d 4fe1 eb3c 426b 513c 8484 88b9
00000050: c8f0 40bc 4215 ba3c 0e08 cbbc 0a06 9bbc
00000060: e89d be3c e5e1 0bbd f01c 2e3d b43e 953c
00000070: 15ce e73c 902b dbbc 297e 2b3c 4d7c 75bd
00000080: 3a74 26bd 7b79 babc 0027 80b9 c94b f8bc
00000090: aad4 a73b 0c5f 98bc 23ac 9a3b 7f3d 0e3c
000000a0: aec4 673d 632e 5dbd 2a7d 643d 639c 393d
000000b0: 8e85 453d ac8d 2b3d 5bfb 8b3c 7374 723c
000000c0: d5df 4ebd f9d7 433c b87f 623c 8486 9abc
000000d0: c916 2abd a2f6 7abb 3308 183c 136a 3fbd
000000e0: a829 423d 2032 f7bb 8072 1d3a a5b9 5abd
000000f0: ba2f 89bc c7ca bb3c b02c aa3c 66ad 04bd
00000100: b2c2 0b3d 9cc8 c7bc 3b36 86bc 14d3 4abd
00000110: 960a 563d 53c2 f33c 5836 fc3c 265a 1f3d
00000120: 3daa e03c f2a8 21bd fb6e fd3c c425 5d3c
00000130: e9db 163c c49f e0bc e8ec 0fbb 1c37 233c
00000140: b217 51bd 7944 0a3d ad6e 563c 5d23 cabb
00000150: d06e 23bd cecb f3bc f011 3c3c 8d9e 84bd
00000160: 8c93 c83b 1f0e aa3c 0550 983c efdc df3c
00000170: ea99 353d 3e58 3b3b 88e2 06bd a514 0d3d
00000180: 9c8d eebc 1547 23bd 1127 623d 6947 eeba
00000190: fd5f 32bd 71db e1ba ad4c 993c 2a1d df3c
000001a0: 9a26 3f3d 635b 063d 4f2f 26bd b450 793d
000001b0: 8637 07bd 25b0 55bd 29ed 1d3d d9e8 05bd
000001c0: 4671 3f3d 9fc1 43bd 520d 86bc aa1d 62bd
000001d0: 9b8c 43bd 798b 023d f0d8 6f3b ee1c 033d
000001e0: 736d cdbc 12a7 0bbd 4a28 3bbb 32cf 393d
000001f0: 4b08 bcbc c82b 7a3c 814e b2bb 489a 383c
00000200: c51f c03c 8110 2d3d 4040 1abd 86fe 7ebd
00000210: 78c0 0fbc 2062 f23c 583b 2c3c 7034 e2bc
00000220: 9474 61bd 51c3 78bd aa87 7fbd baaf 313d
00000230: 2171 6bbc 008b 07bd 97be 07bd d55c 24bc
00000240: 2559 14bd 3d2a fbbc b0ad 42bd 739a 88bd
00000250: 30f3 2cbd a604 7cbd d1e5 42bc ac90 023d
00000260: daba 56bd 4562 173c 54a7 71bd 237b 093d
00000270: 9447 68bd 475b debb ccd7 4c3d 8926 3d3d
00000280: 409f 563b be15 343d e196 11bd 32ac 5bbd
00000290: f7a1 603d 4dc6 08bc a287 42bd c062 8dbb
000002a0: e725 83bd 2567 0cbd a03c 5c3d 4eee 1f3d
000002b0: 8513 cb3c 08cf 8dbc b370 1ebd 20e2 843c
000002c0: c89a 453d 2b6a bbbb d44e 70bd 20a0 343d
000002d0: e94d 473d 2336 82bc 5067 4ebd f6f6 aa3c
000002e0: bd5e 15bc dc73 1e3d 1494 4e3d c312 1cbd
000002f0: 2df6 37bd 68c4 11bd 7aa3 ad3c 84aa 08bd
00000300: a09c 363b 5714 c3bb 7c9f 003d 0479 08bd
00000310: ea46 1dbd f583 61bd b4f2 54bd eb81 89bc
00000320: 3c8e 353d 0dd1 6cbd d2d1 693d 9556 09bd
00000330: 0dd3 82bd c9a4 5fbd 7665 04bc d6ad 663c
00000340: 320b b33c 35d5 cc3c 30a0 f03c 4e30 cd3c
00000350: 8514 053d 95bf 33bd 24ff 25bd f2c9 553d
00000360: 30d2 0d3c ec1f 893c 3dde 98bc 8ec0 813d
00000370: 665f 5b3c 2fdb 683d fa5f ca3c 34ae 52bd
00000380: b44c 133d 2807 12bb ea0e 30bd b0b9 81bd
00000390: 653c 5abd 7f40 82bc cf5d 113c d268 56bd
000003a0: f03e 243c 1430 283d 7c90 653d 74c7 453d
000003b0: 8004 f13c 40fc 083b 8896 573d 05f7 683b
000003c0: 7698 ac3c ac23 a8bc 70a1 5e3d 1696 22bd
000003d0: 78a6 613d e19f 8dba b004 77bd 245d 3e3d
000003e0: f428 503d 2f8a 293d 2612 f33c 19d1 a3bb
000003f0: d8ee 15bc 309c e7bc 82be 11bd 8d1f 77bd

4.bias f4 [32]
0.007928568 0.042097453 -0.058089774 0.0548977 0.06700079 0.0022911613 0.003909175 0.057013873
0.03373969 0.008028836 -0.050019987 0.016833963 0.028630178 -0.0247415 0.028926415 0.06147515
0.03249093 0.013980546 0.0363301 0.035619713 -0.03459821 -0.059791353 -0.009991006 -0.022643816
-0.016665403 2.9580766e-05 -0.023475593 0.042416662 -0.021529559 -0.068904355 -0.088404246 0.013570242
00000000: d3e6 013c 616e 2c3d 8bef 6dbd 69dc 603d
00000010: b637 893d 4f27 163b 8918 803b 6187 693d
00000020: a132 0a3d 618b 033c c2e1 4cbd 61e7 893c
00000030: d689 ea3c b0ae cabc 17f7 ec3c 5ecd 7b3d
00000040: 3615 053d a90e 653c dfce 143d fae5 113d
00000050: dab6 0dbd c7e7 74bd 51b1 23bc 867f b9bc
00000060: e285 88bc 3624 f837 e34f c0bc 18bd 2d3d
00000070: c25e b0bc ba1d 8dbd 490d b5bd b855 5e3c

6.weight f4 [1, 32]
0.023389425 -0.06554918 -0.00087743584 0.09713218 0.16996306 -0.108648665 0.060478862 0.051529497
-0.11711839 -0.14837301 -0.11349073 0.08359437 -0.1338488 0.09503801 0.06739918 0.18184479
-0.0011496517 0.01862889 -0.1192925 0.0720285 -0.09126431 -0.13131686 0.1640238 -0.06827053
-0.010205474 0.10306205 0.1368929 0.07979454 -0.032956865 0.1569402 -0.032965846 -0.10827481
00000000: 2e9b bf3c a63e 86bd b903 66ba 3ded c63d
00000010: cc0a 2e3e 3183 debd afb8 773d 9810 533d
00000020: c4db efbd 18ef 17be d46d e8bd 8633 ab3d
00000030: a90f 09be 4aa3 c23d 9508 8a3d 8535 3a3e
00000040: e9af 96ba 9d9b 983c a04f f4bd ae83 933d
00000050: c8e8 babd ed77 06be dbf5 273e 6bd1 8bbd
00000060: dc34 27bc 3212 d33d a72d 0c3e 526b a33d
00000070: c7fd 06bd efb4 203e 3207 07bd 2fbf ddbd
